DEVICE BEING USED:  cuda 
ORIGINAL UN-QUANTIZED MODEL: 
 VAE(
  (fc1): Linear(in_features=784, out_features=600, bias=True)
  (fc21): Linear(in_features=600, out_features=100, bias=True)
  (fc22): Linear(in_features=600, out_features=100, bias=True)
  (fc3): Linear(in_features=100, out_features=600, bias=True)
  (fc4): Linear(in_features=600, out_features=784, bias=True)
) 
====> Test set loss: 185.8668
====> Test set loss: 180.4831
====> Test set loss: 178.7653
====> Test set loss: 177.3960
====> Test set loss: 176.6974
====> Test set loss: 176.5216
====> Test set loss: 175.9763
====> Test set loss: 175.6798
====> Test set loss: 175.5045
====> Test set loss: 175.0905
====> Test set loss: 174.9438
====> Test set loss: 174.9679
====> Test set loss: 174.7223
====> Test set loss: 174.8113
====> Test set loss: 174.5805
THE TOTAL EXECUTION TIME OF UN-QUANTIZED MODEL:  219.49462389945984 SECONDS 
QUANTIZER WRAPPED MODEL WITH LsqQuantizer: 
 VAE(
  (fc1): QuantizerModuleWrapper(
    (module): Linear(in_features=784, out_features=600, bias=True)
  )
  (fc21): QuantizerModuleWrapper(
    (module): Linear(in_features=600, out_features=100, bias=True)
  )
  (fc22): QuantizerModuleWrapper(
    (module): Linear(in_features=600, out_features=100, bias=True)
  )
  (fc3): QuantizerModuleWrapper(
    (module): Linear(in_features=100, out_features=600, bias=True)
  )
  (fc4): QuantizerModuleWrapper(
    (module): Linear(in_features=600, out_features=784, bias=True)
  )
) 
====> Test set loss: 182.2049
====> Test set loss: 182.0198
====> Test set loss: 182.2111
====> Test set loss: 181.6864
====> Test set loss: 181.6396
====> Test set loss: 181.2293
====> Test set loss: 180.9460
====> Test set loss: 181.1920
====> Test set loss: 181.4123
====> Test set loss: 180.9693
====> Test set loss: 181.2755
====> Test set loss: 181.1330
…
